{"format": "layers-model", "generatedBy": "keras v2.4.0", "convertedBy": "TensorFlow.js Converter v2.6.0", "modelTopology": {"keras_version": "2.4.0", "backend": "tensorflow", "model_config": {"class_name": "Sequential", "config": {"name": "sequential", "layers": [{"class_name": "InputLayer", "config": {"batch_input_shape": [null, 22, 36], "dtype": "float32", "sparse": false, "ragged": false, "name": "conv1d_input"}}, {"class_name": "Conv1D", "config": {"name": "conv1d", "trainable": true, "batch_input_shape": [null, 22, 36], "dtype": "float32", "filters": 20, "kernel_size": [3], "strides": [1], "padding": "valid", "data_format": "channels_last", "dilation_rate": [1], "groups": 1, "activation": "relu", "use_bias": true, "kernel_initializer": {"class_name": "GlorotUniform", "config": {"seed": null}}, "bias_initializer": {"class_name": "Zeros", "config": {}}, "kernel_regularizer": null, "bias_regularizer": null, "activity_regularizer": null, "kernel_constraint": null, "bias_constraint": null}}, {"class_name": "Conv1D", "config": {"name": "conv1d_1", "trainable": true, "batch_input_shape": [null, 22, 36], "dtype": "float32", "filters": 30, "kernel_size": [2], "strides": [1], "padding": "valid", "data_format": "channels_last", "dilation_rate": [1], "groups": 1, "activation": "relu", "use_bias": true, "kernel_initializer": {"class_name": "GlorotUniform", "config": {"seed": null}}, "bias_initializer": {"class_name": "Zeros", "config": {}}, "kernel_regularizer": null, "bias_regularizer": null, "activity_regularizer": null, "kernel_constraint": null, "bias_constraint": null}}, {"class_name": "Conv1D", "config": {"name": "conv1d_2", "trainable": true, "batch_input_shape": [null, 22, 36], "dtype": "float32", "filters": 800, "kernel_size": [8], "strides": [1], "padding": "valid", "data_format": "channels_last", "dilation_rate": [1], "groups": 1, "activation": "relu", "use_bias": true, "kernel_initializer": {"class_name": "GlorotUniform", "config": {"seed": null}}, "bias_initializer": {"class_name": "Zeros", "config": {}}, "kernel_regularizer": null, "bias_regularizer": null, "activity_regularizer": null, "kernel_constraint": null, "bias_constraint": null}}, {"class_name": "Conv1D", "config": {"name": "conv1d_3", "trainable": true, "batch_input_shape": [null, 22, 36], "dtype": "float32", "filters": 80, "kernel_size": [1], "strides": [1], "padding": "valid", "data_format": "channels_last", "dilation_rate": [1], "groups": 1, "activation": "relu", "use_bias": true, "kernel_initializer": {"class_name": "GlorotUniform", "config": {"seed": null}}, "bias_initializer": {"class_name": "Zeros", "config": {}}, "kernel_regularizer": null, "bias_regularizer": null, "activity_regularizer": null, "kernel_constraint": null, "bias_constraint": null}}, {"class_name": "Flatten", "config": {"name": "flatten", "trainable": true, "dtype": "float32", "data_format": "channels_last"}}, {"class_name": "Dense", "config": {"name": "dense", "trainable": true, "dtype": "float32", "units": 400, "activation": "relu", "use_bias": true, "kernel_initializer": {"class_name": "GlorotUniform", "config": {"seed": null}}, "bias_initializer": {"class_name": "Zeros", "config": {}}, "kernel_regularizer": null, "bias_regularizer": null, "activity_regularizer": null, "kernel_constraint": null, "bias_constraint": null}}, {"class_name": "Dense", "config": {"name": "dense_1", "trainable": true, "dtype": "float32", "units": 400, "activation": "relu", "use_bias": true, "kernel_initializer": {"class_name": "GlorotUniform", "config": {"seed": null}}, "bias_initializer": {"class_name": "Zeros", "config": {}}, "kernel_regularizer": null, "bias_regularizer": null, "activity_regularizer": null, "kernel_constraint": null, "bias_constraint": null}}, {"class_name": "Dense", "config": {"name": "dense_2", "trainable": true, "dtype": "float32", "units": 100, "activation": "relu", "use_bias": true, "kernel_initializer": {"class_name": "GlorotUniform", "config": {"seed": null}}, "bias_initializer": {"class_name": "Zeros", "config": {}}, "kernel_regularizer": null, "bias_regularizer": null, "activity_regularizer": null, "kernel_constraint": null, "bias_constraint": null}}, {"class_name": "Dense", "config": {"name": "dense_3", "trainable": true, "dtype": "float32", "units": 100, "activation": "relu", "use_bias": true, "kernel_initializer": {"class_name": "GlorotUniform", "config": {"seed": null}}, "bias_initializer": {"class_name": "Zeros", "config": {}}, "kernel_regularizer": null, "bias_regularizer": null, "activity_regularizer": null, "kernel_constraint": null, "bias_constraint": null}}, {"class_name": "Dense", "config": {"name": "dense_4", "trainable": true, "dtype": "float32", "units": 1, "activation": "linear", "use_bias": true, "kernel_initializer": {"class_name": "GlorotUniform", "config": {"seed": null}}, "bias_initializer": {"class_name": "Zeros", "config": {}}, "kernel_regularizer": null, "bias_regularizer": null, "activity_regularizer": null, "kernel_constraint": null, "bias_constraint": null}}]}}, "training_config": {"loss": "penalize_false_positives", "metrics": ["rmse"], "weighted_metrics": null, "loss_weights": null, "optimizer_config": {"class_name": "Adam", "config": {"name": "Adam", "learning_rate": 4.999999873689376e-05, "decay": 0.0, "beta_1": 0.8999999761581421, "beta_2": 0.9990000128746033, "epsilon": 1e-07, "amsgrad": false}}}}, "weightsManifest": [{"paths": ["group1-shard1of1.bin"], "weights": [{"name": "conv1d/kernel", "shape": [3, 36, 20], "dtype": "float32", "quantization": {"dtype": "uint8", "min": -2.555828348795573, "scale": 0.0187928555058498, "original_dtype": "float32"}}, {"name": "conv1d/bias", "shape": [20], "dtype": "float32", "quantization": {"dtype": "uint8", "min": -1.0045713649076575, "scale": 0.006976190034080954, "original_dtype": "float32"}}, {"name": "conv1d_1/kernel", "shape": [2, 20, 30], "dtype": "float32", "quantization": {"dtype": "uint8", "min": -3.2155527114868163, "scale": 0.017963981628417967, "original_dtype": "float32"}}, {"name": "conv1d_1/bias", "shape": [30], "dtype": "float32", "quantization": {"dtype": "uint8", "min": -1.1318099825989967, "scale": 0.010105446273205327, "original_dtype": "float32"}}, {"name": "conv1d_2/kernel", "shape": [8, 30, 800], "dtype": "float32", "quantization": {"dtype": "uint8", "min": -4.850062203874775, "scale": 0.030892115948246975, "original_dtype": "float32"}}, {"name": "conv1d_2/bias", "shape": [800], "dtype": "float32", "quantization": {"dtype": "uint8", "min": -2.713053482654048, "scale": 0.0304837469961129, "original_dtype": "float32"}}, {"name": "conv1d_3/kernel", "shape": [1, 800, 80], "dtype": "float32", "quantization": {"dtype": "uint8", "min": -3.8041017476250145, "scale": 0.029262321135577033, "original_dtype": "float32"}}, {"name": "conv1d_3/bias", "shape": [80], "dtype": "float32", "quantization": {"dtype": "uint8", "min": -1.2374988429686604, "scale": 0.019642838777280323, "original_dtype": "float32"}}, {"name": "dense/kernel", "shape": [960, 400], "dtype": "float32", "quantization": {"dtype": "uint8", "min": -6.006526851654052, "scale": 0.0392583454356474, "original_dtype": "float32"}}, {"name": "dense/bias", "shape": [400], "dtype": "float32", "quantization": {"dtype": "uint8", "min": -7.479333832684685, "scale": 0.044519844242170745, "original_dtype": "float32"}}, {"name": "dense_1/kernel", "shape": [400, 400], "dtype": "float32", "quantization": {"dtype": "uint8", "min": -5.129156445521935, "scale": 0.02787585024740182, "original_dtype": "float32"}}, {"name": "dense_1/bias", "shape": [400], "dtype": "float32", "quantization": {"dtype": "uint8", "min": -3.3935110727945963, "scale": 0.02495228729996027, "original_dtype": "float32"}}, {"name": "dense_2/kernel", "shape": [400, 100], "dtype": "float32", "quantization": {"dtype": "uint8", "min": -0.9495947706933114, "scale": 0.007847890666886872, "original_dtype": "float32"}}, {"name": "dense_2/bias", "shape": [100], "dtype": "float32", "quantization": {"dtype": "uint8", "min": -1.0428621558582083, "scale": 0.01075115624596091, "original_dtype": "float32"}}, {"name": "dense_3/kernel", "shape": [100, 100], "dtype": "float32", "quantization": {"dtype": "uint8", "min": -1.2065396925982308, "scale": 0.0062840608989491184, "original_dtype": "float32"}}, {"name": "dense_3/bias", "shape": [100], "dtype": "float32", "quantization": {"dtype": "uint8", "min": -4.053404718286851, "scale": 0.02370412115957223, "original_dtype": "float32"}}, {"name": "dense_4/kernel", "shape": [100, 1], "dtype": "float32", "quantization": {"dtype": "uint8", "min": -0.11038114498643314, "scale": 0.001452383486663594, "original_dtype": "float32"}}, {"name": "dense_4/bias", "shape": [1], "dtype": "float32", "quantization": {"dtype": "uint8", "min": 0.7854133248329163, "scale": 1.0, "original_dtype": "float32"}}]}]}