{"format": "layers-model", "generatedBy": "keras v2.4.0", "convertedBy": "TensorFlow.js Converter v2.6.0", "modelTopology": {"keras_version": "2.4.0", "backend": "tensorflow", "model_config": {"class_name": "Sequential", "config": {"name": "sequential", "layers": [{"class_name": "InputLayer", "config": {"batch_input_shape": [null, 22, 36], "dtype": "float32", "sparse": false, "ragged": false, "name": "conv1d_input"}}, {"class_name": "Conv1D", "config": {"name": "conv1d", "trainable": true, "batch_input_shape": [null, 22, 36], "dtype": "float32", "filters": 120, "kernel_size": [3], "strides": [1], "padding": "valid", "data_format": "channels_last", "dilation_rate": [1], "groups": 1, "activation": "relu", "use_bias": true, "kernel_initializer": {"class_name": "GlorotUniform", "config": {"seed": null}}, "bias_initializer": {"class_name": "Zeros", "config": {}}, "kernel_regularizer": null, "bias_regularizer": null, "activity_regularizer": null, "kernel_constraint": null, "bias_constraint": null}}, {"class_name": "Conv1D", "config": {"name": "conv1d_1", "trainable": true, "dtype": "float32", "filters": 600, "kernel_size": [4], "strides": [1], "padding": "valid", "data_format": "channels_last", "dilation_rate": [1], "groups": 1, "activation": "relu", "use_bias": true, "kernel_initializer": {"class_name": "GlorotUniform", "config": {"seed": null}}, "bias_initializer": {"class_name": "Zeros", "config": {}}, "kernel_regularizer": null, "bias_regularizer": null, "activity_regularizer": null, "kernel_constraint": null, "bias_constraint": null}}, {"class_name": "Conv1D", "config": {"name": "conv1d_2", "trainable": true, "dtype": "float32", "filters": 1000, "kernel_size": [4], "strides": [1], "padding": "valid", "data_format": "channels_last", "dilation_rate": [1], "groups": 1, "activation": "relu", "use_bias": true, "kernel_initializer": {"class_name": "GlorotUniform", "config": {"seed": null}}, "bias_initializer": {"class_name": "Zeros", "config": {}}, "kernel_regularizer": null, "bias_regularizer": null, "activity_regularizer": null, "kernel_constraint": null, "bias_constraint": null}}, {"class_name": "Conv1D", "config": {"name": "conv1d_3", "trainable": true, "dtype": "float32", "filters": 100, "kernel_size": [1], "strides": [1], "padding": "valid", "data_format": "channels_last", "dilation_rate": [1], "groups": 1, "activation": "relu", "use_bias": true, "kernel_initializer": {"class_name": "GlorotUniform", "config": {"seed": null}}, "bias_initializer": {"class_name": "Zeros", "config": {}}, "kernel_regularizer": null, "bias_regularizer": null, "activity_regularizer": null, "kernel_constraint": null, "bias_constraint": null}}, {"class_name": "Conv1D", "config": {"name": "conv1d_4", "trainable": true, "dtype": "float32", "filters": 10, "kernel_size": [1], "strides": [1], "padding": "valid", "data_format": "channels_last", "dilation_rate": [1], "groups": 1, "activation": "relu", "use_bias": true, "kernel_initializer": {"class_name": "GlorotUniform", "config": {"seed": null}}, "bias_initializer": {"class_name": "Zeros", "config": {}}, "kernel_regularizer": null, "bias_regularizer": null, "activity_regularizer": null, "kernel_constraint": null, "bias_constraint": null}}, {"class_name": "Flatten", "config": {"name": "flatten", "trainable": true, "dtype": "float32", "data_format": "channels_last"}}, {"class_name": "Dense", "config": {"name": "dense", "trainable": true, "dtype": "float32", "units": 40, "activation": "relu", "use_bias": true, "kernel_initializer": {"class_name": "GlorotUniform", "config": {"seed": null}}, "bias_initializer": {"class_name": "Zeros", "config": {}}, "kernel_regularizer": null, "bias_regularizer": null, "activity_regularizer": null, "kernel_constraint": null, "bias_constraint": null}}, {"class_name": "Dense", "config": {"name": "dense_1", "trainable": true, "dtype": "float32", "units": 10, "activation": "relu", "use_bias": true, "kernel_initializer": {"class_name": "GlorotUniform", "config": {"seed": null}}, "bias_initializer": {"class_name": "Zeros", "config": {}}, "kernel_regularizer": null, "bias_regularizer": null, "activity_regularizer": null, "kernel_constraint": null, "bias_constraint": null}}, {"class_name": "Dense", "config": {"name": "dense_2", "trainable": true, "dtype": "float32", "units": 1, "activation": "linear", "use_bias": true, "kernel_initializer": {"class_name": "GlorotUniform", "config": {"seed": null}}, "bias_initializer": {"class_name": "Zeros", "config": {}}, "kernel_regularizer": null, "bias_regularizer": null, "activity_regularizer": null, "kernel_constraint": null, "bias_constraint": null}}]}}, "training_config": {"loss": "penalize_false_positives", "metrics": [{"class_name": "RootMeanSquaredError", "config": {"name": "rmse", "dtype": "float32"}}], "weighted_metrics": null, "loss_weights": null, "optimizer_config": {"class_name": "Adam", "config": {"name": "Adam", "learning_rate": 0.0010000000474974513, "decay": 0.0, "beta_1": 0.8999999761581421, "beta_2": 0.9990000128746033, "epsilon": 1e-07, "amsgrad": false}}}}, "weightsManifest": [{"paths": ["group1-shard1of1.bin"], "weights": [{"name": "conv1d/kernel", "shape": [3, 36, 120], "dtype": "float32", "quantization": {"dtype": "uint8", "min": -0.457143759727478, "scale": 0.003907211621602376, "original_dtype": "float32"}}, {"name": "conv1d/bias", "shape": [120], "dtype": "float32", "quantization": {"dtype": "uint8", "min": -0.30444134684169993, "scale": 0.0015222067342084997, "original_dtype": "float32"}}, {"name": "conv1d_1/kernel", "shape": [4, 120, 600], "dtype": "float32", "quantization": {"dtype": "uint8", "min": -0.6619777361551921, "scale": 0.0048674833540822944, "original_dtype": "float32"}}, {"name": "conv1d_1/bias", "shape": [600], "dtype": "float32", "quantization": {"dtype": "uint8", "min": -0.20898885516559376, "scale": 0.0013570704880882711, "original_dtype": "float32"}}, {"name": "conv1d_2/kernel", "shape": [4, 600, 1000], "dtype": "float32", "quantization": {"dtype": "uint8", "min": -0.655388569130617, "scale": 0.005243108553044936, "original_dtype": "float32"}}, {"name": "conv1d_2/bias", "shape": [1000], "dtype": "float32", "quantization": {"dtype": "uint8", "min": -0.3128334045410156, "scale": 0.0024440109729766844, "original_dtype": "float32"}}, {"name": "conv1d_3/kernel", "shape": [1, 1000, 100], "dtype": "float32", "quantization": {"dtype": "uint8", "min": -0.4750827937733893, "scale": 0.003572051081002927, "original_dtype": "float32"}}, {"name": "conv1d_3/bias", "shape": [100], "dtype": "float32", "quantization": {"dtype": "uint8", "min": -0.18238970345141842, "scale": 0.0022798712931427303, "original_dtype": "float32"}}, {"name": "conv1d_4/kernel", "shape": [1, 100, 10], "dtype": "float32", "quantization": {"dtype": "uint8", "min": -0.40628631769442086, "scale": 0.0031014222724764953, "original_dtype": "float32"}}, {"name": "conv1d_4/bias", "shape": [10], "dtype": "float32", "quantization": {"dtype": "uint8", "min": -0.23183542139389937, "scale": 0.0030911389519186583, "original_dtype": "float32"}}, {"name": "dense/kernel", "shape": [140, 40], "dtype": "float32", "quantization": {"dtype": "uint8", "min": -0.6837353790507597, "scale": 0.004918959561516257, "original_dtype": "float32"}}, {"name": "dense/bias", "shape": [40], "dtype": "float32", "quantization": {"dtype": "uint8", "min": -0.961875581741333, "scale": 0.006499159336090088, "original_dtype": "float32"}}, {"name": "dense_1/kernel", "shape": [40, 10], "dtype": "float32", "quantization": {"dtype": "uint8", "min": -0.5678851782106886, "scale": 0.004145147286209406, "original_dtype": "float32"}}, {"name": "dense_1/bias", "shape": [10], "dtype": "float32", "quantization": {"dtype": "uint8", "min": -0.15130325275308945, "scale": 0.00336229450562421, "original_dtype": "float32"}}, {"name": "dense_2/kernel", "shape": [10, 1], "dtype": "float32", "quantization": {"dtype": "uint8", "min": -0.4387080622654335, "scale": 0.0034274067364486994, "original_dtype": "float32"}}, {"name": "dense_2/bias", "shape": [1], "dtype": "float32", "quantization": {"dtype": "uint8", "min": 0.02926837094128132, "scale": 1.0, "original_dtype": "float32"}}]}]}