{"format": "layers-model", "generatedBy": "keras v2.4.0", "convertedBy": "TensorFlow.js Converter v2.6.0", "modelTopology": {"keras_version": "2.4.0", "backend": "tensorflow", "model_config": {"class_name": "Sequential", "config": {"name": "sequential", "layers": [{"class_name": "InputLayer", "config": {"batch_input_shape": [null, 22, 36], "dtype": "float32", "sparse": false, "ragged": false, "name": "conv1d_input"}}, {"class_name": "Conv1D", "config": {"name": "conv1d", "trainable": true, "batch_input_shape": [null, 22, 36], "dtype": "float32", "filters": 30, "kernel_size": [3], "strides": [1], "padding": "valid", "data_format": "channels_last", "dilation_rate": [1], "groups": 1, "activation": "relu", "use_bias": true, "kernel_initializer": {"class_name": "GlorotUniform", "config": {"seed": null}}, "bias_initializer": {"class_name": "Zeros", "config": {}}, "kernel_regularizer": null, "bias_regularizer": null, "activity_regularizer": null, "kernel_constraint": null, "bias_constraint": null}}, {"class_name": "Conv1D", "config": {"name": "conv1d_1", "trainable": true, "dtype": "float32", "filters": 50, "kernel_size": [3], "strides": [1], "padding": "valid", "data_format": "channels_last", "dilation_rate": [1], "groups": 1, "activation": "relu", "use_bias": true, "kernel_initializer": {"class_name": "GlorotUniform", "config": {"seed": null}}, "bias_initializer": {"class_name": "Zeros", "config": {}}, "kernel_regularizer": null, "bias_regularizer": null, "activity_regularizer": null, "kernel_constraint": null, "bias_constraint": null}}, {"class_name": "Conv1D", "config": {"name": "conv1d_2", "trainable": true, "dtype": "float32", "filters": 70, "kernel_size": [3], "strides": [1], "padding": "valid", "data_format": "channels_last", "dilation_rate": [1], "groups": 1, "activation": "relu", "use_bias": true, "kernel_initializer": {"class_name": "GlorotUniform", "config": {"seed": null}}, "bias_initializer": {"class_name": "Zeros", "config": {}}, "kernel_regularizer": null, "bias_regularizer": null, "activity_regularizer": null, "kernel_constraint": null, "bias_constraint": null}}, {"class_name": "Conv1D", "config": {"name": "conv1d_3", "trainable": true, "dtype": "float32", "filters": 30, "kernel_size": [1], "strides": [1], "padding": "valid", "data_format": "channels_last", "dilation_rate": [1], "groups": 1, "activation": "relu", "use_bias": true, "kernel_initializer": {"class_name": "GlorotUniform", "config": {"seed": null}}, "bias_initializer": {"class_name": "Zeros", "config": {}}, "kernel_regularizer": null, "bias_regularizer": null, "activity_regularizer": null, "kernel_constraint": null, "bias_constraint": null}}, {"class_name": "Flatten", "config": {"name": "flatten", "trainable": true, "dtype": "float32", "data_format": "channels_last"}}, {"class_name": "Dense", "config": {"name": "dense", "trainable": true, "dtype": "float32", "units": 40, "activation": "relu", "use_bias": true, "kernel_initializer": {"class_name": "GlorotUniform", "config": {"seed": null}}, "bias_initializer": {"class_name": "Zeros", "config": {}}, "kernel_regularizer": null, "bias_regularizer": null, "activity_regularizer": null, "kernel_constraint": null, "bias_constraint": null}}, {"class_name": "Dense", "config": {"name": "dense_1", "trainable": true, "dtype": "float32", "units": 40, "activation": "relu", "use_bias": true, "kernel_initializer": {"class_name": "GlorotUniform", "config": {"seed": null}}, "bias_initializer": {"class_name": "Zeros", "config": {}}, "kernel_regularizer": null, "bias_regularizer": null, "activity_regularizer": null, "kernel_constraint": null, "bias_constraint": null}}, {"class_name": "Dense", "config": {"name": "dense_2", "trainable": true, "dtype": "float32", "units": 10, "activation": "relu", "use_bias": true, "kernel_initializer": {"class_name": "GlorotUniform", "config": {"seed": null}}, "bias_initializer": {"class_name": "Zeros", "config": {}}, "kernel_regularizer": null, "bias_regularizer": null, "activity_regularizer": null, "kernel_constraint": null, "bias_constraint": null}}, {"class_name": "Dense", "config": {"name": "dense_3", "trainable": true, "dtype": "float32", "units": 1, "activation": "linear", "use_bias": true, "kernel_initializer": {"class_name": "GlorotUniform", "config": {"seed": null}}, "bias_initializer": {"class_name": "Zeros", "config": {}}, "kernel_regularizer": null, "bias_regularizer": null, "activity_regularizer": null, "kernel_constraint": null, "bias_constraint": null}}]}}, "training_config": {"loss": "penalize_false_positives", "metrics": [{"class_name": "RootMeanSquaredError", "config": {"name": "rmse", "dtype": "float32"}}], "weighted_metrics": null, "loss_weights": null, "optimizer_config": {"class_name": "Adam", "config": {"name": "Adam", "learning_rate": 9.999999747378752e-06, "decay": 0.0, "beta_1": 0.8999999761581421, "beta_2": 0.9990000128746033, "epsilon": 1e-07, "amsgrad": false}}}}, "weightsManifest": [{"paths": ["group1-shard1of1.bin"], "weights": [{"name": "conv1d/kernel", "shape": [3, 36, 30], "dtype": "float32", "quantization": {"dtype": "uint8", "min": -1.7570815983940573, "scale": 0.014402308183557847, "original_dtype": "float32"}}, {"name": "conv1d/bias", "shape": [30], "dtype": "float32", "quantization": {"dtype": "uint8", "min": -1.9569266711964328, "scale": 0.012079794266644647, "original_dtype": "float32"}}, {"name": "conv1d_1/kernel", "shape": [3, 30, 50], "dtype": "float32", "quantization": {"dtype": "uint8", "min": -2.6717117141274844, "scale": 0.015998273737290326, "original_dtype": "float32"}}, {"name": "conv1d_1/bias", "shape": [50], "dtype": "float32", "quantization": {"dtype": "uint8", "min": -1.4538439273834227, "scale": 0.010238337516784667, "original_dtype": "float32"}}, {"name": "conv1d_2/kernel", "shape": [3, 50, 70], "dtype": "float32", "quantization": {"dtype": "uint8", "min": -1.942341358053918, "scale": 0.013395457641751159, "original_dtype": "float32"}}, {"name": "conv1d_2/bias", "shape": [70], "dtype": "float32", "quantization": {"dtype": "uint8", "min": -1.7623316110349168, "scale": 0.015595854964910769, "original_dtype": "float32"}}, {"name": "conv1d_3/kernel", "shape": [1, 70, 30], "dtype": "float32", "quantization": {"dtype": "uint8", "min": -1.3324700673421224, "scale": 0.00979757402457443, "original_dtype": "float32"}}, {"name": "conv1d_3/bias", "shape": [30], "dtype": "float32", "quantization": {"dtype": "uint8", "min": -0.9610501457663143, "scale": 0.010010939018399107, "original_dtype": "float32"}}, {"name": "dense/kernel", "shape": [480, 40], "dtype": "float32", "quantization": {"dtype": "uint8", "min": -2.4737725903006162, "scale": 0.020444401572732366, "original_dtype": "float32"}}, {"name": "dense/bias", "shape": [40], "dtype": "float32", "quantization": {"dtype": "uint8", "min": -2.9618411891600664, "scale": 0.018865230504204245, "original_dtype": "float32"}}, {"name": "dense_1/kernel", "shape": [40, 40], "dtype": "float32", "quantization": {"dtype": "uint8", "min": -3.214065801863577, "scale": 0.01567836976518818, "original_dtype": "float32"}}, {"name": "dense_1/bias", "shape": [40], "dtype": "float32", "quantization": {"dtype": "uint8", "min": -4.126769640866447, "scale": 0.02501072509616029, "original_dtype": "float32"}}, {"name": "dense_2/kernel", "shape": [40, 10], "dtype": "float32", "quantization": {"dtype": "uint8", "min": -0.7597257445840275, "scale": 0.0051682023441090305, "original_dtype": "float32"}}, {"name": "dense_2/bias", "shape": [10], "dtype": "float32", "quantization": {"dtype": "uint8", "min": -0.8128254128437415, "scale": 0.017294157720079608, "original_dtype": "float32"}}, {"name": "dense_3/kernel", "shape": [10, 1], "dtype": "float32", "quantization": {"dtype": "uint8", "min": -0.34533840067246385, "scale": 0.0031111567628149895, "original_dtype": "float32"}}, {"name": "dense_3/bias", "shape": [1], "dtype": "float32", "quantization": {"dtype": "uint8", "min": -0.02002733014523983, "scale": 1.0, "original_dtype": "float32"}}]}]}