{"format": "layers-model", "generatedBy": "keras v2.4.0", "convertedBy": "TensorFlow.js Converter v2.6.0", "modelTopology": {"keras_version": "2.4.0", "backend": "tensorflow", "model_config": {"class_name": "Sequential", "config": {"name": "sequential", "layers": [{"class_name": "InputLayer", "config": {"batch_input_shape": [null, 22, 36], "dtype": "float32", "sparse": false, "ragged": false, "name": "flatten_input"}}, {"class_name": "Flatten", "config": {"name": "flatten", "trainable": true, "batch_input_shape": [null, 22, 36], "dtype": "float32", "data_format": "channels_last"}}, {"class_name": "Dense", "config": {"name": "dense", "trainable": true, "dtype": "float32", "units": 500, "activation": "relu", "use_bias": true, "kernel_initializer": {"class_name": "GlorotUniform", "config": {"seed": null}}, "bias_initializer": {"class_name": "Zeros", "config": {}}, "kernel_regularizer": null, "bias_regularizer": null, "activity_regularizer": null, "kernel_constraint": null, "bias_constraint": null}}, {"class_name": "Dropout", "config": {"name": "dropout", "trainable": true, "dtype": "float32", "rate": 0.0, "noise_shape": null, "seed": null}}, {"class_name": "Dense", "config": {"name": "dense_1", "trainable": true, "dtype": "float32", "units": 400, "activation": "relu", "use_bias": true, "kernel_initializer": {"class_name": "GlorotUniform", "config": {"seed": null}}, "bias_initializer": {"class_name": "Zeros", "config": {}}, "kernel_regularizer": null, "bias_regularizer": null, "activity_regularizer": null, "kernel_constraint": null, "bias_constraint": null}}, {"class_name": "Dropout", "config": {"name": "dropout_1", "trainable": true, "dtype": "float32", "rate": 0.0, "noise_shape": null, "seed": null}}, {"class_name": "Dense", "config": {"name": "dense_2", "trainable": true, "dtype": "float32", "units": 200, "activation": "relu", "use_bias": true, "kernel_initializer": {"class_name": "GlorotUniform", "config": {"seed": null}}, "bias_initializer": {"class_name": "Zeros", "config": {}}, "kernel_regularizer": null, "bias_regularizer": null, "activity_regularizer": null, "kernel_constraint": null, "bias_constraint": null}}, {"class_name": "Dropout", "config": {"name": "dropout_2", "trainable": true, "dtype": "float32", "rate": 0.0, "noise_shape": null, "seed": null}}, {"class_name": "Dense", "config": {"name": "dense_3", "trainable": true, "dtype": "float32", "units": 200, "activation": "relu", "use_bias": true, "kernel_initializer": {"class_name": "GlorotUniform", "config": {"seed": null}}, "bias_initializer": {"class_name": "Zeros", "config": {}}, "kernel_regularizer": null, "bias_regularizer": null, "activity_regularizer": null, "kernel_constraint": null, "bias_constraint": null}}, {"class_name": "Dense", "config": {"name": "dense_4", "trainable": true, "dtype": "float32", "units": 1, "activation": "linear", "use_bias": true, "kernel_initializer": {"class_name": "GlorotUniform", "config": {"seed": null}}, "bias_initializer": {"class_name": "Zeros", "config": {}}, "kernel_regularizer": null, "bias_regularizer": null, "activity_regularizer": null, "kernel_constraint": null, "bias_constraint": null}}]}}, "training_config": {"loss": "mse", "metrics": [{"class_name": "RootMeanSquaredError", "config": {"name": "rmse", "dtype": "float32"}}], "weighted_metrics": null, "loss_weights": null, "optimizer_config": {"class_name": "Adam", "config": {"name": "Adam", "learning_rate": 4.999999873689376e-06, "decay": 0.0, "beta_1": 0.8999999761581421, "beta_2": 0.9990000128746033, "epsilon": 1e-07, "amsgrad": false}}}}, "weightsManifest": [{"paths": ["group1-shard1of1.bin"], "weights": [{"name": "dense/kernel", "shape": [792, 500], "dtype": "float32", "quantization": {"dtype": "uint8", "min": -6.694470644932167, "scale": 0.06499486063040939, "original_dtype": "float32"}}, {"name": "dense/bias", "shape": [500], "dtype": "float32", "quantization": {"dtype": "uint8", "min": -3.789485179676729, "scale": 0.03324109806733973, "original_dtype": "float32"}}, {"name": "dense_1/kernel", "shape": [500, 400], "dtype": "float32", "quantization": {"dtype": "uint8", "min": -5.459246164209703, "scale": 0.0366392360014074, "original_dtype": "float32"}}, {"name": "dense_1/bias", "shape": [400], "dtype": "float32", "quantization": {"dtype": "uint8", "min": -3.9081780564551263, "scale": 0.02752238067926145, "original_dtype": "float32"}}, {"name": "dense_2/kernel", "shape": [400, 200], "dtype": "float32", "quantization": {"dtype": "uint8", "min": -4.578784233916039, "scale": 0.024355235286787444, "original_dtype": "float32"}}, {"name": "dense_2/bias", "shape": [200], "dtype": "float32", "quantization": {"dtype": "uint8", "min": -1.870117816738054, "scale": 0.021745556008582023, "original_dtype": "float32"}}, {"name": "dense_3/kernel", "shape": [200, 200], "dtype": "float32", "quantization": {"dtype": "uint8", "min": -3.366182442272411, "scale": 0.014763958080142152, "original_dtype": "float32"}}, {"name": "dense_3/bias", "shape": [200], "dtype": "float32", "quantization": {"dtype": "uint8", "min": -6.848666219150319, "scale": 0.04857210084503772, "original_dtype": "float32"}}, {"name": "dense_4/kernel", "shape": [200, 1], "dtype": "float32", "quantization": {"dtype": "uint8", "min": -0.11844676031785853, "scale": 0.0013160751146428726, "original_dtype": "float32"}}, {"name": "dense_4/bias", "shape": [1], "dtype": "float32", "quantization": {"dtype": "uint8", "min": -0.9950430393218994, "scale": 1.0, "original_dtype": "float32"}}]}]}