{"format": "layers-model", "generatedBy": "keras v2.4.0", "convertedBy": "TensorFlow.js Converter v2.6.0", "modelTopology": {"keras_version": "2.4.0", "backend": "tensorflow", "model_config": {"class_name": "Sequential", "config": {"name": "sequential", "layers": [{"class_name": "InputLayer", "config": {"batch_input_shape": [null, 22, 36], "dtype": "float32", "sparse": false, "ragged": false, "name": "conv1d_input"}}, {"class_name": "Conv1D", "config": {"name": "conv1d", "trainable": true, "batch_input_shape": [null, 22, 36], "dtype": "float32", "filters": 20, "kernel_size": [3], "strides": [1], "padding": "valid", "data_format": "channels_last", "dilation_rate": [1], "groups": 1, "activation": "relu", "use_bias": true, "kernel_initializer": {"class_name": "GlorotUniform", "config": {"seed": null}}, "bias_initializer": {"class_name": "Zeros", "config": {}}, "kernel_regularizer": null, "bias_regularizer": null, "activity_regularizer": null, "kernel_constraint": null, "bias_constraint": null}}, {"class_name": "Conv1D", "config": {"name": "conv1d_1", "trainable": true, "batch_input_shape": [null, 22, 36], "dtype": "float32", "filters": 30, "kernel_size": [2], "strides": [1], "padding": "valid", "data_format": "channels_last", "dilation_rate": [1], "groups": 1, "activation": "relu", "use_bias": true, "kernel_initializer": {"class_name": "GlorotUniform", "config": {"seed": null}}, "bias_initializer": {"class_name": "Zeros", "config": {}}, "kernel_regularizer": null, "bias_regularizer": null, "activity_regularizer": null, "kernel_constraint": null, "bias_constraint": null}}, {"class_name": "Flatten", "config": {"name": "flatten", "trainable": true, "dtype": "float32", "data_format": "channels_last"}}, {"class_name": "Dense", "config": {"name": "dense", "trainable": true, "dtype": "float32", "units": 400, "activation": "relu", "use_bias": true, "kernel_initializer": {"class_name": "GlorotUniform", "config": {"seed": null}}, "bias_initializer": {"class_name": "Zeros", "config": {}}, "kernel_regularizer": null, "bias_regularizer": null, "activity_regularizer": null, "kernel_constraint": null, "bias_constraint": null}}, {"class_name": "Dense", "config": {"name": "dense_1", "trainable": true, "dtype": "float32", "units": 400, "activation": "relu", "use_bias": true, "kernel_initializer": {"class_name": "GlorotUniform", "config": {"seed": null}}, "bias_initializer": {"class_name": "Zeros", "config": {}}, "kernel_regularizer": null, "bias_regularizer": null, "activity_regularizer": null, "kernel_constraint": null, "bias_constraint": null}}, {"class_name": "Dense", "config": {"name": "dense_2", "trainable": true, "dtype": "float32", "units": 100, "activation": "relu", "use_bias": true, "kernel_initializer": {"class_name": "GlorotUniform", "config": {"seed": null}}, "bias_initializer": {"class_name": "Zeros", "config": {}}, "kernel_regularizer": null, "bias_regularizer": null, "activity_regularizer": null, "kernel_constraint": null, "bias_constraint": null}}, {"class_name": "Dense", "config": {"name": "dense_3", "trainable": true, "dtype": "float32", "units": 100, "activation": "relu", "use_bias": true, "kernel_initializer": {"class_name": "GlorotUniform", "config": {"seed": null}}, "bias_initializer": {"class_name": "Zeros", "config": {}}, "kernel_regularizer": null, "bias_regularizer": null, "activity_regularizer": null, "kernel_constraint": null, "bias_constraint": null}}, {"class_name": "Dense", "config": {"name": "dense_4", "trainable": true, "dtype": "float32", "units": 100, "activation": "relu", "use_bias": true, "kernel_initializer": {"class_name": "GlorotUniform", "config": {"seed": null}}, "bias_initializer": {"class_name": "Zeros", "config": {}}, "kernel_regularizer": null, "bias_regularizer": null, "activity_regularizer": null, "kernel_constraint": null, "bias_constraint": null}}, {"class_name": "Dense", "config": {"name": "dense_5", "trainable": true, "dtype": "float32", "units": 10, "activation": "relu", "use_bias": true, "kernel_initializer": {"class_name": "GlorotUniform", "config": {"seed": null}}, "bias_initializer": {"class_name": "Zeros", "config": {}}, "kernel_regularizer": null, "bias_regularizer": null, "activity_regularizer": null, "kernel_constraint": null, "bias_constraint": null}}, {"class_name": "Dense", "config": {"name": "dense_6", "trainable": true, "dtype": "float32", "units": 1, "activation": "linear", "use_bias": true, "kernel_initializer": {"class_name": "GlorotUniform", "config": {"seed": null}}, "bias_initializer": {"class_name": "Zeros", "config": {}}, "kernel_regularizer": null, "bias_regularizer": null, "activity_regularizer": null, "kernel_constraint": null, "bias_constraint": null}}]}}, "training_config": {"loss": "penalize_false_positives", "metrics": ["rmse"], "weighted_metrics": null, "loss_weights": null, "optimizer_config": {"class_name": "Adam", "config": {"name": "Adam", "learning_rate": 9.999999974752427e-07, "decay": 0.0, "beta_1": 0.8999999761581421, "beta_2": 0.9990000128746033, "epsilon": 1e-07, "amsgrad": false}}}}, "weightsManifest": [{"paths": ["group1-shard1of1.bin"], "weights": [{"name": "conv1d/kernel", "shape": [3, 36, 20], "dtype": "float32", "quantization": {"dtype": "uint8", "min": -4.099788539549884, "scale": 0.030368803996665805, "original_dtype": "float32"}}, {"name": "conv1d/bias", "shape": [20], "dtype": "float32", "quantization": {"dtype": "uint8", "min": -2.735060703053194, "scale": 0.017993820414823645, "original_dtype": "float32"}}, {"name": "conv1d_1/kernel", "shape": [2, 20, 30], "dtype": "float32", "quantization": {"dtype": "uint8", "min": -5.2930872169195435, "scale": 0.03132004270366594, "original_dtype": "float32"}}, {"name": "conv1d_1/bias", "shape": [30], "dtype": "float32", "quantization": {"dtype": "uint8", "min": -3.2375191632439106, "scale": 0.02569459653368183, "original_dtype": "float32"}}, {"name": "dense/kernel", "shape": [570, 400], "dtype": "float32", "quantization": {"dtype": "uint8", "min": -10.372684493719364, "scale": 0.08103659760718253, "original_dtype": "float32"}}, {"name": "dense/bias", "shape": [400], "dtype": "float32", "quantization": {"dtype": "uint8", "min": -4.270665178111956, "scale": 0.0292511313569312, "original_dtype": "float32"}}, {"name": "dense_1/kernel", "shape": [400, 400], "dtype": "float32", "quantization": {"dtype": "uint8", "min": -11.75216594022863, "scale": 0.06995336869183709, "original_dtype": "float32"}}, {"name": "dense_1/bias", "shape": [400], "dtype": "float32", "quantization": {"dtype": "uint8", "min": -3.3825841118307673, "scale": 0.023168384327607996, "original_dtype": "float32"}}, {"name": "dense_2/kernel", "shape": [400, 100], "dtype": "float32", "quantization": {"dtype": "uint8", "min": -14.08565307411493, "scale": 0.06739546925413842, "original_dtype": "float32"}}, {"name": "dense_2/bias", "shape": [100], "dtype": "float32", "quantization": {"dtype": "uint8", "min": -4.902525560528624, "scale": 0.023914758831846947, "original_dtype": "float32"}}, {"name": "dense_3/kernel", "shape": [100, 100], "dtype": "float32", "quantization": {"dtype": "uint8", "min": -1.5568030974444222, "scale": 0.009979507034900142, "original_dtype": "float32"}}, {"name": "dense_3/bias", "shape": [100], "dtype": "float32", "quantization": {"dtype": "uint8", "min": -3.350758502062629, "scale": 0.016923022737690047, "original_dtype": "float32"}}, {"name": "dense_4/kernel", "shape": [100, 100], "dtype": "float32", "quantization": {"dtype": "uint8", "min": -1.8880049051022996, "scale": 0.012756789899339862, "original_dtype": "float32"}}, {"name": "dense_4/bias", "shape": [100], "dtype": "float32", "quantization": {"dtype": "uint8", "min": -8.311355876922608, "scale": 0.04541724522908529, "original_dtype": "float32"}}, {"name": "dense_5/kernel", "shape": [100, 10], "dtype": "float32", "quantization": {"dtype": "uint8", "min": -1.9061175682965446, "scale": 0.009725089634166044, "original_dtype": "float32"}}, {"name": "dense_5/bias", "shape": [10], "dtype": "float32", "quantization": {"dtype": "uint8", "min": -1.8941914852927713, "scale": 0.021772315922905416, "original_dtype": "float32"}}, {"name": "dense_6/kernel", "shape": [10, 1], "dtype": "float32", "quantization": {"dtype": "uint8", "min": -0.14840750773163403, "scale": 0.0008384604956589493, "original_dtype": "float32"}}, {"name": "dense_6/bias", "shape": [1], "dtype": "float32", "quantization": {"dtype": "uint8", "min": 0.2999950051307678, "scale": 1.0, "original_dtype": "float32"}}]}]}