{"format": "layers-model", "generatedBy": "keras v2.4.0", "convertedBy": "TensorFlow.js Converter v2.6.0", "modelTopology": {"keras_version": "2.4.0", "backend": "tensorflow", "model_config": {"class_name": "Sequential", "config": {"name": "sequential", "layers": [{"class_name": "InputLayer", "config": {"batch_input_shape": [null, 22, 36], "dtype": "float32", "sparse": false, "ragged": false, "name": "conv1d_input"}}, {"class_name": "Conv1D", "config": {"name": "conv1d", "trainable": true, "batch_input_shape": [null, 22, 36], "dtype": "float32", "filters": 120, "kernel_size": [3], "strides": [1], "padding": "valid", "data_format": "channels_last", "dilation_rate": [1], "groups": 1, "activation": "relu", "use_bias": true, "kernel_initializer": {"class_name": "GlorotUniform", "config": {"seed": null}}, "bias_initializer": {"class_name": "Zeros", "config": {}}, "kernel_regularizer": null, "bias_regularizer": null, "activity_regularizer": null, "kernel_constraint": null, "bias_constraint": null}}, {"class_name": "Conv1D", "config": {"name": "conv1d_1", "trainable": true, "dtype": "float32", "filters": 120, "kernel_size": [4], "strides": [1], "padding": "valid", "data_format": "channels_last", "dilation_rate": [1], "groups": 1, "activation": "relu", "use_bias": true, "kernel_initializer": {"class_name": "GlorotUniform", "config": {"seed": null}}, "bias_initializer": {"class_name": "Zeros", "config": {}}, "kernel_regularizer": null, "bias_regularizer": null, "activity_regularizer": null, "kernel_constraint": null, "bias_constraint": null}}, {"class_name": "Conv1D", "config": {"name": "conv1d_2", "trainable": true, "dtype": "float32", "filters": 120, "kernel_size": [6], "strides": [1], "padding": "valid", "data_format": "channels_last", "dilation_rate": [1], "groups": 1, "activation": "relu", "use_bias": true, "kernel_initializer": {"class_name": "GlorotUniform", "config": {"seed": null}}, "bias_initializer": {"class_name": "Zeros", "config": {}}, "kernel_regularizer": null, "bias_regularizer": null, "activity_regularizer": null, "kernel_constraint": null, "bias_constraint": null}}, {"class_name": "Conv1D", "config": {"name": "conv1d_3", "trainable": true, "dtype": "float32", "filters": 40, "kernel_size": [1], "strides": [1], "padding": "valid", "data_format": "channels_last", "dilation_rate": [1], "groups": 1, "activation": "relu", "use_bias": true, "kernel_initializer": {"class_name": "GlorotUniform", "config": {"seed": null}}, "bias_initializer": {"class_name": "Zeros", "config": {}}, "kernel_regularizer": null, "bias_regularizer": null, "activity_regularizer": null, "kernel_constraint": null, "bias_constraint": null}}, {"class_name": "Flatten", "config": {"name": "flatten", "trainable": true, "dtype": "float32", "data_format": "channels_last"}}, {"class_name": "Dense", "config": {"name": "dense", "trainable": true, "dtype": "float32", "units": 80, "activation": "relu", "use_bias": true, "kernel_initializer": {"class_name": "GlorotUniform", "config": {"seed": null}}, "bias_initializer": {"class_name": "Zeros", "config": {}}, "kernel_regularizer": null, "bias_regularizer": null, "activity_regularizer": null, "kernel_constraint": null, "bias_constraint": null}}, {"class_name": "Dense", "config": {"name": "dense_1", "trainable": true, "dtype": "float32", "units": 10, "activation": "relu", "use_bias": true, "kernel_initializer": {"class_name": "GlorotUniform", "config": {"seed": null}}, "bias_initializer": {"class_name": "Zeros", "config": {}}, "kernel_regularizer": null, "bias_regularizer": null, "activity_regularizer": null, "kernel_constraint": null, "bias_constraint": null}}, {"class_name": "Dense", "config": {"name": "dense_2", "trainable": true, "dtype": "float32", "units": 1, "activation": "linear", "use_bias": true, "kernel_initializer": {"class_name": "GlorotUniform", "config": {"seed": null}}, "bias_initializer": {"class_name": "Zeros", "config": {}}, "kernel_regularizer": null, "bias_regularizer": null, "activity_regularizer": null, "kernel_constraint": null, "bias_constraint": null}}]}}, "training_config": {"loss": "penalize_false_positives", "metrics": [{"class_name": "RootMeanSquaredError", "config": {"name": "rmse", "dtype": "float32"}}], "weighted_metrics": null, "loss_weights": null, "optimizer_config": {"class_name": "Adam", "config": {"name": "Adam", "learning_rate": 9.999999974752427e-07, "decay": 0.0, "beta_1": 0.8999999761581421, "beta_2": 0.9990000128746033, "epsilon": 1e-07, "amsgrad": false}}}}, "weightsManifest": [{"paths": ["group1-shard1of1.bin"], "weights": [{"name": "conv1d/kernel", "shape": [3, 36, 120], "dtype": "float32", "quantization": {"dtype": "uint8", "min": -1.3532169977823894, "scale": 0.009950124983694039, "original_dtype": "float32"}}, {"name": "conv1d/bias", "shape": [120], "dtype": "float32", "quantization": {"dtype": "uint8", "min": -1.0979925641826556, "scale": 0.006949320026472503, "original_dtype": "float32"}}, {"name": "conv1d_1/kernel", "shape": [4, 120, 120], "dtype": "float32", "quantization": {"dtype": "uint8", "min": -1.7455695713267607, "scale": 0.011794388995451086, "original_dtype": "float32"}}, {"name": "conv1d_1/bias", "shape": [120], "dtype": "float32", "quantization": {"dtype": "uint8", "min": -1.1050832626866358, "scale": 0.007466778801936729, "original_dtype": "float32"}}, {"name": "conv1d_2/kernel", "shape": [6, 120, 120], "dtype": "float32", "quantization": {"dtype": "uint8", "min": -1.5551590330460492, "scale": 0.011692925060496611, "original_dtype": "float32"}}, {"name": "conv1d_2/bias", "shape": [120], "dtype": "float32", "quantization": {"dtype": "uint8", "min": -0.8951944835045759, "scale": 0.007922075075261733, "original_dtype": "float32"}}, {"name": "conv1d_3/kernel", "shape": [1, 120, 40], "dtype": "float32", "quantization": {"dtype": "uint8", "min": -1.2811660542207606, "scale": 0.0083192600923426, "original_dtype": "float32"}}, {"name": "conv1d_3/bias", "shape": [40], "dtype": "float32", "quantization": {"dtype": "uint8", "min": -0.9073910215321709, "scale": 0.009165565874062332, "original_dtype": "float32"}}, {"name": "dense/kernel", "shape": [480, 80], "dtype": "float32", "quantization": {"dtype": "uint8", "min": -2.0370523882847205, "scale": 0.013142273472804649, "original_dtype": "float32"}}, {"name": "dense/bias", "shape": [80], "dtype": "float32", "quantization": {"dtype": "uint8", "min": -4.179312405866735, "scale": 0.026619824241189395, "original_dtype": "float32"}}, {"name": "dense_1/kernel", "shape": [80, 10], "dtype": "float32", "quantization": {"dtype": "uint8", "min": -1.0283936619758605, "scale": 0.0063091635704040526, "original_dtype": "float32"}}, {"name": "dense_1/bias", "shape": [10], "dtype": "float32", "quantization": {"dtype": "uint8", "min": -0.279482598398246, "scale": 0.013974129919912301, "original_dtype": "float32"}}, {"name": "dense_2/kernel", "shape": [10, 1], "dtype": "float32", "quantization": {"dtype": "uint8", "min": -0.12308438057992972, "scale": 0.0016633024402693205, "original_dtype": "float32"}}, {"name": "dense_2/bias", "shape": [1], "dtype": "float32", "quantization": {"dtype": "uint8", "min": -0.4495517909526825, "scale": 1.0, "original_dtype": "float32"}}]}]}